webapp/models/spatial_cnn_int8.tflite (tflite, 14592 bytes, 3 tensors)

spatial_cnn/conv3/Conv2D i1 [16, 3, 3, 32]
0	0x00	0
1	0x32	50
2	0x10	16
3	0x31	49
4	0xff	-1
5	0xf2	-14
6	0xb1	-79
7	0x03	3
8	0xd7	-41
9	0xec	-20
10	0x16	22
11	0x23	35
12	0x6c	108
13	0xd8	-40
14	0x27	39
15	0x32	50
16	0x0a	10
17	0xf8	-8
18	0xb9	-71
19	0x20	32
20	0xf0	-16
21	0x1a	26
22	0x0c	12
23	0x38	56
24	0xd1	-47
25	0xb2	-78
26	0x21	33
27	0x9a	-102
28	0xfe	-2
29	0x14	20
30	0x20	32
31	0x18	24
32	0x32	50
33	0xf9	-7
34	0xd1	-47
35	0xdf	-33
36	0x2a	42
37	0x0f	15
38	0x09	9
39	0x08	8
40	0xdd	-35
41	0xe6	-26
42	0x00	0
43	0xca	-54
44	0xe2	-30
45	0xfd	-3
46	0x2b	43
47	0x22	34
48	0x1a	26
49	0x0d	13
50	0xd0	-48
51	0xd7	-41
52	0xeb	-21
53	0x2f	47
54	0x03	3
55	0x3d	61
56	0xfa	-6
57	0x30	48
58	0x2f	47
59	0x19	25
60	0x16	22
61	0xf0	-16
62	0x10	16
63	0xdd	-35
64	0xd0	-48
65	0xa5	-91
66	0x1a	26
67	0xe4	-28
68	0xc9	-55
69	0xed	-19
70	0x16	22
71	0xdd	-35
72	0xee	-18
73	0x40	64
74	0xde	-34
75	0x03	3
76	0xd1	-47
77	0x9b	-101
78	0xf6	-10
79	0x39	57
80	0xe7	-25
81	0x22	34
82	0xd5	-43
83	0xfc	-4
84	0xe5	-27
85	0x2f	47
86	0x18	24
87	0x0e	14
88	0x0e	14
89	0x2b	43
90	0xf2	-14
91	0xf1	-15
92	0x0d	13
93	0x37	55
94	0x40	64
95	0x21	33
96	0x04	4
97	0xe9	-23
98	0x2a	42
99	0x1b	27
100	0xfa	-6
101	0x17	23
102	0x1a	26
103	0xe5	-27
104	0xd6	-42
105	0xe0	-32
106	0x36	54
107	0x07	7
108	0x5a	90
109	0xd6	-42
110	0x03	3
111	0x2c	44
112	0x28	40
113	0x00	0
114	0xc0	-64
115	0x13	19
116	0x0e	14
117	0x0f	15
118	0xae	-82
119	0xb5	-75
120	0x46	70
121	0x0b	11
122	0xe5	-27
123	0xcc	-52
124	0xd7	-41
125	0xd0	-48
126	0x45	69
127	0x1f	31
128	0x17	23
129	0xf9	-7
130	0x0d	13
131	0xe8	-24
132	0x16	22
133	0xe5	-27
134	0x3b	59
135	0xcf	-49
136	0xea	-22
137	0x00	0
138	0x07	7
139	0x04	4
140	0xba	-70
141	0xfc	-4
142	0x26	38
143	0xef	-17
144	0xfc	-4
145	0x4f	79
146	0xb5	-75
147	0xe4	-28
148	0x18	24
149	0x5a	90
150	0xd9	-39
151	0x1b	27
152	0x41	65
153	0x3e	62
154	0xfd	-3
155	0xfc	-4
156	0xcc	-52
157	0xea	-22
158	0x2f	47
159	0xed	-19
160	0x21	33
161	0xd2	-46
162	0x51	81
163	0xe7	-25
164	0x2c	44
165	0x0a	10
166	0x1d	29
167	0xc0	-64
168	0xf3	-13
169	0x3f	63
170	0xc5	-59
171	0xa8	-88
172	0xff	-1
173	0xd0	-48
174	0xfa	-6
175	0x07	7
176	0x00	0
177	0x22	34
178	0xcf	-49
179	0x23	35
180	0xf4	-12
181	0xf2	-14
182	0xf2	-14
183	0xc5	-59
184	0x20	32
185	0x22	34
186	0xf7	-9
187	0xf9	-7
188	0xdd	-35
189	0x44	68
190	0x17	23
191	0x17	23
192	0x3e	62
193	0xa4	-92
194	0x5c	92
195	0x1a	26
196	0xd8	-40
197	0xf8	-8
198	0x1e	30
199	0xe7	-25
200	0x1f	31
201	0x2d	45
202	0xf6	-10
203	0x25	37
204	0x15	21
205	0xf5	-11
206	0xf2	-14
207	0x4c	76
208	0xff	-1
209	0xe3	-29
210	0xe5	-27
211	0xfd	-3
212	0x13	19
213	0x43	67
214	0xbc	-68
215	0xc0	-64
216	0xde	-34
217	0x39	57
218	0xec	-20
219	0xf6	-10
220	0x22	34
221	0x1a	26
222	0x42	66
223	0x26	38
224	0x12	18
225	0xc2	-62
226	0xeb	-21
227	0xec	-20
228	0xe0	-32
229	0xd3	-45
230	0x1a	26
231	0xe4	-28
232	0xe8	-24
233	0x30	48
234	0xfa	-6
235	0x00	0
236	0x05	5
237	0xe0	-32
238	0xf9	-7
239	0x03	3
240	0x2e	46
241	0x7f	127
242	0xed	-19
243	0x3e	62
244	0x11	17
245	0x28	40
246	0xdf	-33
247	0xf3	-13
248	0x23	35
249	0x01	1
250	0x22	34
251	0x2f	47
252	0xe7	-25
253	0x16	22
254	0x27	39
255	0xff	-1

spatial_cnn/conv2/Conv2D i1 [32, 3, 3, 16]
0	0xfa	-6
1	0xda	-38
2	0x18	24
3	0xea	-22
4	0x27	39
5	0x03	3
6	0xe5	-27
7	0x07	7
8	0x15	21
9	0x0a	10
10	0xfb	-5
11	0x23	35
12	0x1e	30
13	0x0c	12
14	0x0c	12
15	0xe2	-30
16	0xc6	-58
17	0x0e	14
18	0x0e	14
19	0xd5	-43
20	0x08	8
21	0xd2	-46
22	0x0d	13
23	0xde	-34
24	0xfd	-3
25	0x0a	10
26	0x0e	14
27	0xd2	-46
28	0xb1	-79
29	0xe1	-31
30	0xeb	-21
31	0xeb	-21
32	0x81	-127
33	0xcd	-51
34	0xf9	-7
35	0x02	2
36	0xec	-20
37	0xdc	-36
38	0x1a	26
39	0x05	5
40	0x32	50
41	0xe9	-23
42	0x01	1
43	0xf4	-12
44	0xc4	-60
45	0xfd	-3
46	0x11	17
47	0xab	-85
48	0x0c	12
49	0x0f	15
50	0xdc	-36
51	0xf8	-8
52	0x11	17
53	0x1e	30
54	0xce	-50
55	0xf0	-16
56	0xdc	-36
57	0x13	19
58	0xea	-22
59	0x30	48
60	0x1d	29
61	0xf0	-16
62	0x09	9
63	0x1d	29
64	0xf2	-14
65	0x0c	12
66	0x2c	44
67	0xdd	-35
68	0x03	3
69	0xe6	-26
70	0xd6	-42
71	0x02	2
72	0xe0	-32
73	0x18	24
74	0xf9	-7
75	0x0b	11
76	0xdd	-35
77	0xf8	-8
78	0x20	32
79	0xdd	-35
80	0xd3	-45
81	0x02	2
82	0x08	8
83	0xcc	-52
84	0x0a	10
85	0xf1	-15
86	0x0b	11
87	0x00	0
88	0x0a	10
89	0x10	16
90	0x1e	30
91	0xf4	-12
92	0xef	-17
93	0x15	21
94	0x35	53
95	0x8e	-114
96	0x1d	29
97	0x16	22
98	0xed	-19
99	0xed	-19
100	0x10	16
101	0x29	41
102	0xe0	-32
103	0x09	9
104	0xf8	-8
105	0x1d	29
106	0xde	-34
107	0x36	54
108	0x1c	28
109	0xea	-22
110	0x2e	46
111	0x14	20
112	0xe7	-25
113	0xdb	-37
114	0x2c	44
115	0xef	-17
116	0xfc	-4
117	0xf0	-16
118	0x0b	11
119	0x26	38
120	0x09	9
121	0xfa	-6
122	0xf5	-11
123	0x0a	10
124	0xb5	-75
125	0xe9	-23
126	0xe6	-26
127	0xf4	-12
128	0xdd	-35
129	0x03	3
130	0x1b	27
131	0xf7	-9
132	0xdc	-36
133	0xe5	-27
134	0x18	24
135	0x1b	27
136	0x17	23
137	0xef	-17
138	0xf2	-14
139	0xe8	-24
140	0xbb	-69
141	0x0f	15
142	0x20	32
143	0xf2	-14
144	0xd5	-43
145	0x36	54
146	0x27	39
147	0xf4	-12
148	0x1c	28
149	0xea	-22
150	0x25	37
151	0x86	-122
152	0xe6	-26
153	0xe1	-31
154	0xd3	-45
155	0xe4	-28
156	0x0d	13
157	0xce	-50
158	0xe5	-27
159	0xf0	-16
160	0x2d	45
161	0xe8	-24
162	0xad	-83
163	0xc9	-55
164	0x4e	78
165	0x2e	46
166	0xba	-70
167	0xd8	-40
168	0x00	0
169	0x25	37
170	0x12	18
171	0x56	86
172	0xdc	-36
173	0xd6	-42
174	0x59	89
175	0x2a	42
176	0x53	83
177	0x57	87
178	0x2c	44
179	0x4c	76
180	0xe2	-30
181	0xe0	-32
182	0x35	53
183	0xbc	-68
184	0xda	-38
185	0xdd	-35
186	0x1c	28
187	0x9a	-102
188	0x21	33
189	0xec	-20
190	0x21	33
191	0xf1	-15
192	0xd4	-44
193	0x21	33
194	0x45	69
195	0xee	-18
196	0xb6	-74
197	0x0a	10
198	0x05	5
199	0x3d	61
200	0x16	22
201	0xda	-38
202	0xe1	-31
203	0x1a	26
204	0xc4	-60
205	0x30	48
206	0x02	2
207	0xc3	-61
208	0x12	18
209	0x10	16
210	0xc4	-60
211	0xed	-19
212	0xf3	-13
213	0xe8	-24
214	0x11	17
215	0xda	-38
216	0x0f	15
217	0x56	86
218	0x44	68
219	0x32	50
220	0x45	69
221	0xf0	-16
222	0x41	65
223	0x6b	107
224	0xe3	-29
225	0x0a	10
226	0x51	81
227	0x60	96
228	0xb7	-73
229	0x92	-110
230	0xf7	-9
231	0x30	48
232	0xb6	-74
233	0x04	4
234	0x0a	10
235	0xbc	-68
236	0xb5	-75
237	0x17	23
238	0x18	24
239	0xfe	-2
240	0xb7	-73
241	0x1a	26
242	0x89	-119
243	0xd0	-48
244	0xec	-20
245	0xb6	-74
246	0xa8	-88
247	0x24	36
248	0x02	2
249	0x34	52
250	0x1a	26
251	0xf5	-11
252	0xc3	-61
253	0x29	41
254	0xd9	-39
255	0x95	-107

spatial_cnn/conv1/Conv2D i1 [16, 3, 3, 3]
0	0xbd	-67
1	0x9a	-102
2	0x12	18
3	0x60	96
4	0xae	-82
5	0xf3	-13
6	0x45	69
7	0xb3	-77
8	0x1b	27
9	0x7f	127
10	0x13	19
11	0xc2	-62
12	0x2b	43
13	0x8b	-117
14	0xfb	-5
15	0x4f	79
16	0xc3	-61
17	0x26	38
18	0x75	117
19	0xe9	-23
20	0xc1	-63
21	0xfb	-5
22	0xbe	-66
23	0xf8	-8
24	0x1b	27
25	0xd7	-41
26	0xc6	-58
27	0x02	2
28	0x19	25
29	0x55	85
30	0xda	-38
31	0xe2	-30
32	0x02	2
33	0xef	-17
34	0x98	-104
35	0x81	-127
36	0xf4	-12
37	0x5f	95
38	0x6c	108
39	0x44	68
40	0x04	4
41	0x4b	75
42	0x0d	13
43	0xd1	-47
44	0xee	-18
45	0xf5	-11
46	0x19	25
47	0xaf	-81
48	0xe2	-30
49	0xbc	-68
50	0x47	71
51	0xbf	-65
52	0x15	21
53	0xed	-19
54	0x0c	12
55	0x12	18
56	0xad	-83
57	0xb0	-80
58	0xc3	-61
59	0x19	25
60	0x24	36
61	0xf6	-10
62	0x19	25
63	0x47	71
64	0xac	-84
65	0xa0	-96
66	0x5f	95
67	0x57	87
68	0x05	5
69	0x20	32
70	0x7f	127
71	0x6b	107
72	0xf0	-16
73	0xff	-1
74	0xc9	-55
75	0xa3	-93
76	0x43	67
77	0x37	55
78	0xf3	-13
79	0xdc	-36
80	0xd2	-46
81	0x05	5
82	0x16	22
83	0x3f	63
84	0x0b	11
85	0xa3	-93
86	0xc8	-56
87	0x11	17
88	0x14	20
89	0x25	37
90	0x2f	47
91	0x0d	13
92	0x2f	47
93	0xf4	-12
94	0xb2	-78
95	0xc2	-62
96	0xa9	-87
97	0xea	-22
98	0x8e	-114
99	0xe0	-32
100	0x7f	127
101	0x59	89
102	0x13	19
103	0x3f	63
104	0xc8	-56
105	0xf2	-14
106	0x59	89
107	0x48	72
108	0xcd	-51
109	0xef	-17
110	0x0b	11
111	0xb8	-72
112	0xab	-85
113	0x8c	-116
114	0x1c	28
115	0x32	50
116	0xd8	-40
117	0x96	-106
118	0x55	85
119	0xee	-18
120	0xce	-50
121	0xa5	-91
122	0xb7	-73
123	0x2a	42
124	0xdc	-36
125	0x1f	31
126	0xfe	-2
127	0xe0	-32
128	0xa7	-89
129	0x35	53
130	0x49	73
131	0x81	-127
132	0xbb	-69
133	0xe2	-30
134	0x1c	28
135	0xb6	-74
136	0xcf	-49
137	0x67	103
138	0xdb	-37
139	0x14	20
140	0x65	101
141	0x02	2
142	0xa4	-92
143	0xe6	-26
144	0xd8	-40
145	0x21	33
146	0x38	56
147	0x11	17
148	0xcc	-52
149	0x0f	15
150	0x3b	59
151	0x86	-122
152	0xc3	-61
153	0x60	96
154	0x9c	-100
155	0xcd	-51
156	0xc3	-61
157	0x81	-127
158	0xc8	-56
159	0x6b	107
160	0xcc	-52
161	0x31	49
162	0x5d	93
163	0xc0	-64
164	0xb0	-80
165	0x22	34
166	0x18	24
167	0x5b	91
168	0x7e	126
169	0xfa	-6
170	0xbb	-69
171	0x1e	30
172	0xa8	-88
173	0x35	53
174	0x2a	42
175	0xcf	-49
176	0x9c	-100
177	0x8d	-115
178	0x6c	108
179	0x46	70
180	0xe6	-26
181	0xbd	-67
182	0x6b	107
183	0x81	-127
184	0x31	49
185	0x04	4
186	0xd4	-44
187	0x6b	107
188	0x28	40
189	0xfc	-4
190	0xf4	-12
191	0x35	53
192	0x09	9
193	0x63	99
194	0xf8	-8
195	0x23	35
196	0x7e	126
197	0x2b	43
198	0x65	101
199	0x3a	58
200	0x8d	-115
201	0x09	9
202	0x2d	45
203	0xdc	-36
204	0xf5	-11
205	0x47	71
206	0xb8	-72
207	0xff	-1
208	0xa2	-94
209	0xd5	-43
210	0x9a	-102
211	0xd7	-41
212	0xf7	-9
213	0x01	1
214	0xd8	-40
215	0x81	-127
216	0x7f	127
217	0xe0	-32
218	0x08	8
219	0x40	64
220	0x10	16
221	0x16	22
222	0x3e	62
223	0x47	71
224	0x3d	61
225	0x44	68
226	0xb6	-74
227	0xa9	-87
228	0x33	51
229	0xe3	-29
230	0x27	39
231	0xd4	-44
232	0x47	71
233	0x19	25
234	0x32	50
235	0xcd	-51
236	0x8f	-113
237	0x51	81
238	0xce	-50
239	0x89	-119
240	0xef	-17
241	0x7f	127
242	0xd6	-42
243	0xd8	-40
244	0x01	1
245	0xce	-50
246	0x60	96
247	0x6a	106
248	0xfd	-3
249	0xdc	-36
250	0x75	117
251	0x5a	90
252	0xcc	-52
253	0xe7	-25
254	0xdf	-33
255	0xe2	-30
