webapp/models/test_n6_ok.tflite (tflite, 21388 bytes, 3 tensors)

arith.constant f4 [1, 4624]
-0.030384162 -0.016878111 -0.013021501 -0.026831467 0.028862886 -0.002653394 0.01842089 0.031551443
-0.033687986 -0.027814582 -0.028684165 0.010533277 0.011048913 -0.003262598 -0.01592956 -0.003248006
-0.006358823 0.019358288 -0.01882594 0.007365614 0.03541164 -0.03241679 -0.034444 0.01627722
-0.018899577 0.017536618 0.017487556 0.035606988 0.018574469 -0.020803265 -0.026182733 0.03201326
0.027923308 0.0015561171 -0.0074899755 0.0244902 -0.016019462 -0.0021242984 -0.015081223 -0.032008052
0.022585668 0.034477018 -0.005265549 0.00020869076 0.029477902 0.0039049312 0.010251209 0.019499894
0.020552706 -0.030425992 -0.03250226 0.00049829856 -0.0022521578 0.02280401 -0.034607418 0.018068809
-0.031417213 -0.0021106787 -0.009931244 0.033283964 0.010385059 -0.0022130162 -0.029522248 -0.004289601
-0.012067951 0.033544615 -0.013396347 0.027466677 -0.002933994 -0.03309247 0.004977811 -0.012126731
0.02740018 -0.014302691 0.026473925 -0.033042654 -0.018755918 0.01645144 -0.024030525 0.014955778
0.024244215 0.012997154 -0.027283799 0.0003463626 -0.031893462 0.03184312 -0.026993074 -0.010331234
0.017212339 -0.030582909 -0.014186883 -0.030571856 0.0039292686 0.034453794 0.02175716 0.009137418
-0.010574264 -0.009906983 -0.012526946 0.01770372 -0.022453612 -0.02770336 -0.006162515 0.012533806
-0.032443196 0.0020198599 -0.014436878 0.005906578 0.016320575 -0.01669612 0.0075658374 -0.016095595
0.007999688 -0.016304364 0.0036821663 -0.022339985 0.007189151 0.00035636872 -0.021195158 0.028390616
-0.019944161 -0.01718147 0.010154825 -0.029898565 0.0011727177 -0.008040838 -0.017962283 -0.024910929
0.0261046 -0.014137395 -0.026301771 0.018667288 -0.0049551055 -0.012013335 0.0045514144 0.010088772
0.010464389 -0.034043342 0.023384009 0.017844137 -0.0031141825 -0.034509815 -0.032975253 -0.028461426
0.027052902 -0.035830963 -0.010062845 -0.01948594 -0.0017792769 -0.010642149 0.004297968 -0.012154032
0.02083693 0.0055771396 -0.035240695 0.009617683 0.0027784333 0.0046571493 0.026687555 -0.031810902
0.030133344 0.009210318 0.027552165 -0.031541627 0.01819178 -0.005874539 -0.017239692 -0.0083640665
0.029931419 0.033286817 -0.023976512 0.017445814 0.007754013 0.017867718 0.028771564 -0.0069424193
-0.028205875 -0.027379598 0.006760042 0.010038335 0.008190833 -0.022865685 -0.0115422495 0.0008237846
-0.009198569 -0.0039039962 0.035677105 -0.0145265125 -0.033227257 0.00032910332 0.0051920675 -0.025177754
0.028955013 0.011826415 0.031893536 0.00711615 -0.0057836063 0.010850307 -0.009785937 -0.004768297
0.001876235 -0.02364753 0.03266985 0.024796303 -0.007672861 -0.019920837 0.022316094 -0.016277013
-0.0055058394 0.011990879 0.0006424375 -0.00789913 0.027640648 -0.030657575 0.02996049 0.029831283
0.018265348 0.034105666 -0.025902942 0.026753925 -0.005409224 0.025321886 -0.03159699 -0.023002464
-0.020873785 0.020644795 0.02853141 -0.002231814 0.01677386 -0.032543704 0.02528835 -0.005704947
-0.00058303773 -0.028162636 0.013834905 -0.01909329 0.0064424723 -0.030358564 0.0014315397 -0.010087233
-0.031569503 0.0062952675 -0.01655556 0.019681096 -0.024589092 0.018585846 0.011933122 0.016505368
-0.00611246 -0.019417172 -0.034420583 0.032772884 0.019333083 -0.01479516 0.0060972422 -0.0063047986
00000000: 35e8 f8bc f743 8abc 2258 55bc aacd dbbc
00000010: dc71 ec3c 90e4 2dbb 68e7 963c 163c 013d
00000020: 6afc 09bd 68db e3bc 0efb eabc c493 2c3c
00000030: 8006 353c 50d1 55bb b57e 82bc 80dc 54bb
00000040: ac5d d0bb 4695 9e3c dc38 9abc 405b f13b
00000050: cc0b 113d 78c7 04bd 2715 0dbd ce57 853c
00000060: 49d3 9abc f4a8 8f3c 1042 8f3c a2d8 113d
00000070: 7c29 983c 9c6b aabc 2c7d d6bc 5620 033d
00000080: 6cbf e43c a0f6 cb3a 786e f5bb ac9f c83c
00000090: 3f3b 83bc d037 0bbb 3c17 77bc e01a 03bd
000000a0: 9405 b93c c637 0d3d a08a acbb 00d4 5a39
000000b0: a47b f13c e0e9 7f3b b0f4 273c 3ebe 9f3c
000000c0: 265e a83c ee3f f9bc 1721 05bd 40a0 023a
000000d0: f098 13bb 7acf ba3c 82c0 0dbd 0a05 943c
000000e0: 56af 00bd 5053 0abb a8b6 22bc c454 083d
000000f0: 1826 2a3c 4008 11bb a4d8 f1bc c88f 8cbb
00000100: a8b8 45bc 1466 093d 5a7c 5bbc cc01 e13c
00000110: 4048 40bb f88b 07bd e81c a33b 32af 46bc
00000120: 5876 e03c d655 6abc d8df d83c bc57 07bd
00000130: 03a6 99bc 2cc5 863c aadb c4bc 1409 753c
00000140: ce9b c63c 04f2 543c 4682 dfbc 0098 b539
00000150: b8a2 02bd ee6d 023d 9420 ddbc 5644 29bc
00000160: e400 8d3c 0289 fabc 1a70 68bc d471 fabc
00000170: 18c1 803b 6c1f 0d3d 123c b23c 1cb5 153c
00000180: ae3f 2dbc e650 22bc d23d 4dbc 6407 913c
00000190: a3f0 b7bc 28f2 e2bc ecee c9bb 985a 4d3c
000001a0: 28e3 04bd a05f 043b a888 6cbc f88b c13b
000001b0: bab2 853c 4dc6 88bc d8ea f73b e9da 83bc
000001c0: 2011 033c bb90 85bc 8050 713b 5802 b7bc
000001d0: f892 eb3b 00d7 ba39 78a1 adbc 7093 e83c
000001e0: f061 a3bc 27c0 8cbc 6c60 263c d6ed f4bc
000001f0: e0b5 993a b8bd 03bc a325 93bc 0112 ccbc
00000200: 50d9 d53c 88a0 67bc d076 d7bc 24ec 983c
00000210: 705e a2bb 94d3 44bc 0824 953b 604b 253c
00000220: d472 2b3c 0871 0bbd d28f bf3c de2d 923c
00000230: 5017 4cbb 2a5a 0dbd 0f11 07bd f027 e9bc
00000240: 0c9e dd3c 7dc3 12bd a2de 24bc faa0 9fbc
00000250: a036 e9ba 685c 2ebc f8d5 8c3b b421 47bc
00000260: 36b2 aa3c 70c0 b63b 8c58 10bd 7c93 1d3c
00000270: 6016 363b 009b 983b dc9f da3c 264c 02bd
00000280: 34da f63c e0e6 163c 14b5 e13c cb31 01bd
00000290: ee06 953c 347f c0bb 413a 8dbc 7009 09bc
000002a0: bc32 f53c c257 083d 646a c4bc 86ea 8e3c
000002b0: 6015 fe3b 525f 923c 58b2 eb3c 3c7d e3bb
000002c0: 0210 e7bc 2e4b e0bc 5883 dd3b d477 243c
000002d0: d832 063c d150 bbbc b41b 3dbc 40f3 573a
000002e0: 98b5 16bc 30da 7fbb 2822 123d 9c00 6ebc
000002f0: 4e19 08bd 808b ac39 3822 aa3b 9441 cebc
00000300: 1033 ed3c 94c3 413c cca2 023d 982e e93b
00000310: 6884 bdbb 7cc5 313c 3255 20bc 603f 9cbb
00000320: 00ec f53a 77b8 c1bc d2d0 053d 9e21 cb3c
00000330: a06c fbbb 0631 a3bc 3ed0 b63c 5f57 85bc
00000340: 546a b4bb 6475 443c 4069 283a 5a6b 01bc
00000350: a46e e23c 9825 fbbc b46f f53c bc60 f43c
00000360: 36a1 953c 62b2 0b3d 6832 d4bc 0c2b db3c
00000370: dc3f b1bb d86f cf3c d86b 01bd aa6f bcbc
00000380: 80ff aabc 461f a93c b4ba e93c a043 12bb
00000390: 5669 893c 8c4c 05bd 8429 cf3c 90f0 babb
000003a0: 00d7 18ba 54b5 e6bc ccab 623c 8869 9cbc
000003b0: 601b d33b 86b2 f8bc 80a2 bb3a ec44 25bc
000003c0: 064f 01bd 8848 ce3b 879f 87bc 403a a13c
000003d0: 106f c9bc 5841 983c 2483 433c 4436 873c
000003e0: 084b c8bb c310 9fbc 99fc 0cbd dc3c 063d
000003f0: 6a60 9e3c 6667 72bc 60cb c73b 7c98 cebb

arith.constant2 f4 [4]
0.0 0.0 0.0 0.0
00000000: 0000 0000 0000 0000 0000 0000 0000 0000

functional_1/conv2d_1/convolution f4 [4, 3, 3, 3]
0.018879056 0.143973 -0.2928072 -0.21541968 -0.2085279 -0.0066403747 -0.022588521 -0.13011003
-0.08816145 0.23265263 -0.15345082 -0.1650058 0.050469726 -0.08045885 -0.26759627 -0.1397879
0.016058534 -0.09268184 0.19335905 -0.15169474 -0.2239689 0.09610474 -0.019629538 0.25282165
0.19008708 -0.054657042 -0.055185825 0.02469027 0.18129066 -0.29235682 0.17155206 -0.30436525
0.13753825 -0.17019744 -0.1278328 -0.18001151 -0.21690242 -0.03931552 0.117901295 -0.12672855
0.13397136 -0.0577603 -0.20735389 0.23058829 0.07574326 0.06882769 -0.30537423 0.23811737
-0.0921476 0.14256215 0.25959358 0.26892462 0.30004737 -0.30252412 -0.044468075 0.30585417
0.0082137585 0.1356084 -0.30452964 -0.048678488 -0.17761832 -0.09813115 0.082448095 0.23540059
0.09792203 -0.29009157 -0.28214446 0.28087792 -0.047590405 0.21270117 -0.2868012 0.036325842
0.13996941 0.07954654 0.024161786 -0.20614868 0.22594836 -0.20909297 0.01655379 -0.20309883
0.15376669 0.25003234 0.23603019 0.2714217 0.08562583 -0.057142407 0.18371084 -0.20859846
0.065891 0.038165122 0.3077382 -0.03556174 -0.26224953 0.17410898 0.112995654 0.1167534
0.112202406 -0.19879445 0.25037262 0.26666906 0.23658928 0.19138706 -0.24280944 -0.23601162
0.26776454 -0.11371988 -0.19017147 -0.06033206
00000000: 40a8 9a3c a86d 133e d3ea 95be fa96 5cbe
00000010: 5688 55be 8097 d9bb 900b b9bc 903b 05be
00000020: fe8d b4bd 7e3c 6e3e 3622 1dbe 48f7 28be
00000030: 58b9 4e3d 9cc7 a4bd 6102 89be 8f24 0fbe
00000040: 308d 833c facf bdbd eaff 453e de55 1bbe
00000050: 1a58 65be 90d2 c43d 20ce a0bc d771 813e
00000060: 30a6 423e 10e0 5fbd 880a 62bd 4043 ca3c
00000070: 42a4 393e cbaf 95be 58ab 2f3e c3d5 9bbe
00000080: d4d6 0c3e 3d48 2ebe 9ae6 02be f054 38be
00000090: ab1b 5ebe 5009 21bd 3c76 f13d 21c5 01be
000000a0: ca2f 093e 1096 6cbd 9454 54be 561f 6c3e
000000b0: 481f 9b3d 88f5 8c3d 035a 9cbe 0ad5 733e
000000c0: e2b7 bcbd d0fb 113e 73e9 843e 7db0 893e
000000d0: cf9f 993e 71e4 9abe 2824 36bd eb98 9c3e
000000e0: 0093 063c eedc 0a3e 4feb 9bbe 1863 47bd
000000f0: 94e1 35be fcf8 c8bd 8cda a83d da0c 713e
00000100: 588b c83d e286 94be 3d75 90be 3bcf 8f3e
00000110: 28ee 42bd 56ce 593e 9bd7 92be 68ca 143d
00000120: 2454 0f3e 4ce9 a23d f0ee c53c a418 53be
00000130: 025f 673e 781c 56be d09b 873c 24f9 4fbe
00000140: 0475 1d3e 3d04 803e e6b1 713e c9f7 8a3e
00000150: 985c af3d 280e 6abd b21e 3c3e d69a 55be
00000160: dcf1 863d 0853 1c3d dd8f 9d3e 30a9 11bd
00000170: 9245 86be a049 323e 446a e73d 681c ef3d
00000180: 60ca e53d c690 4bbe d730 803e d988 883e
00000190: 7644 723e f8fa 433e 0aa3 78be 08ad 71be
000001a0: 6f18 893e f8e5 e8bd 4fbc 42be c01e 77bd
